MPC-Net_solution/policy/mpcPolicy_2022-12-21_031924.pt (torch, 7895 bytes, 6 tensors)

weight f4 [28, 7]
0	0xbfa5a4d6	-1.2940929
1	0x3cc029ef	0.023457495
2	0xbfb91d5c	-1.4462085
3	0x3f7c1eca	0.9848448
4	0xc001c8f2	-2.0278897
5	0xbf86c524	-1.0528913
6	0x3e8eed68	0.27915502
7	0xb9a5365d	-0.00031511756
8	0x3e510e2e	0.20415565
9	0xbe854b78	-0.2603414
10	0x3d86ba75	0.065785326
11	0x3e6b87e6	0.2300106
12	0xbda77a53	-0.08177628
13	0xbd03a220	-0.032137036
14	0xbc67b76a	-0.01414285
15	0xbee9961f	-0.45622346
16	0x3f6ca0e5	0.92433006
17	0xbf65addf	-0.8971843
18	0xbe4f4062	-0.20239404
19	0x3f1003d7	0.5625586
20	0xbde3818b	-0.11108693
21	0x3b3436c3	0.002749846
22	0x3ef6e1c2	0.48219115
23	0x3d69873c	0.057013735
24	0xbce87311	-0.02837518
25	0x3c471712	0.0121514965
26	0xbe0e1ecc	-0.13878936
27	0xbe2c6889	-0.16836752
28	0x3cffa1c6	0.03120507
29	0x3f80b468	1.0055056
30	0xbe411347	-0.1885501
31	0x3f77047d	0.96491224
32	0x3f88e488	1.0694742
33	0x3ec5e7cb	0.38653407
34	0x3e8d9ba9	0.27657822
35	0xbc5fd653	-0.013661939
36	0x3f49c716	0.78819406
37	0x3ddf8d94	0.10915676
38	0xbe32588c	-0.1741659
39	0x3f90fc74	1.1327043
40	0x3f284f43	0.65745944
41	0x3e461406	0.19343576
42	0xbdde6772	-0.108595744
43	0x3f8199c6	1.0125053
44	0xbdbcdb31	-0.09221495
45	0xbf4106a1	-0.7540074
46	0x3f6da11d	0.92823964
47	0x3d14f51c	0.036366567
48	0xbdefc9f4	-0.117084414
49	0xbfb452ed	-1.4087807
50	0xbcfff473	-0.031244492
51	0x3ff031ba	1.8765175
52	0x3fa0852d	1.2540642
53	0x3ee25505	0.4420549
54	0x3f3f5b82	0.74749005
55	0x3f365cff	0.7123565
56	0x3b251ac5	0.0025192958
57	0xbdb2de79	-0.087338395
58	0xbd302e0e	-0.04301267
59	0xbc2dc609	-0.010606297
60	0xbbd40840	-0.00647071
61	0x3d1b43d0	0.037906468
62	0x3cb118bc	0.02161824
63	0x3c0b53d5	0.008503874
64	0xbd42bd31	-0.04754371
65	0x3d01cf77	0.031691995
66	0xbcf1f7d9	-0.029537128
67	0xbca544ea	-0.020174462
68	0x3c93896d	0.018009866
69	0x3c322d71	0.010875092
70	0xbb203d68	-0.0024450663
71	0x3e2a68f2	0.16641596
72	0x3d86f829	0.065903015
73	0x3b4af7bb	0.0030970413
74	0xbc43a4ec	-0.011941176
75	0xbd8ffcfa	-0.07030673
76	0xbd5f5109	-0.05452064
77	0xbc5e7c24	-0.013579402
78	0xbf791523	-0.9729788
79	0x3ea8d17c	0.32972324
80	0x3f58f028	0.8474145
81	0xbf88296e	-1.0637643
82	0xba757159	-0.00093628984
83	0x3e8f3cf5	0.27976194
84	0x3cce4f33	0.02518425
85	0x3ee248d5	0.4419619
86	0xbc12e963	-0.008966777
87	0xbf13189b	-0.5745942
88	0x3f6f736d	0.935355
89	0x3ee15d99	0.44016722
90	0x3dbcee49	0.09225137
91	0xbcb89cb3	-0.022535658
92	0xbf87be0e	-1.0604875
93	0xbe8b79aa	-0.2724126
94	0xbf22fc97	-0.6366667
95	0xbfb4fbdd	-1.4139363
96	0xbf26aac3	-0.6510431
97	0xbed3323d	-0.41249266
98	0xbbcd83df	-0.006271824
99	0x3d76d843	0.060264837
100	0x3d982263	0.07428434
101	0x3f14ebb8	0.5817218
102	0x3f29d1cd	0.66335756
103	0x3f3a38b5	0.7274278
104	0x3f014317	0.50492996
105	0xbc473526	-0.012158668
106	0x3e812217	0.2522132
107	0xbfce00a0	-1.6093941
108	0x3ef96b1b	0.48714527
109	0xbf1e96ac	-0.6194866
110	0xbf881924	-1.0632672
111	0x3e789256	0.24274573
112	0xbc674a7c	-0.01411688
113	0x3dc90d24	0.098169595
114	0xc073c711	-3.809025
115	0xc0078704	-2.1176157
116	0xbfb62f5a	-1.42332
117	0xbfbc5d15	-1.4715906
118	0xbf855fa4	-1.0419812
119	0xbc490981	-0.012270332
120	0xbf3cc56c	-0.7373874
121	0x3fa53951	1.2908117
122	0xbfa2acdb	-1.2709001
123	0xbf6e550e	-0.93098533
124	0x3e6d102e	0.23150703
125	0xbebb683c	-0.36602962
126	0x3dba1d27	0.090875916
127	0x3e16534d	0.14680214
128	0xbf47f49b	-0.78107613
129	0x3fd4aa3e	1.6614454
130	0x3eced799	0.40398863
131	0x3ea8fcd7	0.33005401
132	0x3f2100f8	0.62892103
133	0xbd2fdbc8	-0.04293421
134	0x3e279fed	0.163696
135	0xbf443a51	-0.76651484
136	0x3fd15ad1	1.635584
137	0x3f4059a5	0.75136787
138	0x3ee1450e	0.43997997
139	0x3f1b5c9a	0.60688174
140	0xbc11b259	-0.008892619
141	0xbe0975fc	-0.13423914
142	0xbdb6641c	-0.08905813
143	0x3f7db95c	0.9911096
144	0xbdc38c3b	-0.09548231
145	0x3de6cb93	0.112692975
146	0x3f00bf8c	0.5029228
147	0xbc90bfe5	-0.017669627
148	0x3ea48e0a	0.32139617
149	0x3e821888	0.2540934
150	0xbfc3f298	-1.5308409
151	0x3f71a96a	0.9439913
152	0x3f509f25	0.81492835
153	0xbec36f89	-0.38171032
154	0x3c2d1c78	0.0105658695
155	0x3eac7639	0.33683947
156	0x3f2a35a5	0.66488105
157	0x3ec1f69d	0.37883464
158	0x3f6e2137	0.9301943
159	0x3f6a0c5e	0.9142512
160	0x3f395d7c	0.7240827
161	0xbd134ced	-0.035962034
162	0x3f61edb1	0.88253313
163	0x3df3a108	0.11895949
164	0x3e82b23a	0.255266
165	0x3f974449	1.1817714
166	0x3ea069ff	0.3133087
167	0x3db4b167	0.08822899
168	0x3c38a985	0.011270885
169	0x3eeb54d4	0.45963156
170	0x3ebd74d2	0.3700319
171	0x3e1fd481	0.15608408
172	0x3f9a5da9	1.2059833
173	0x3f4ccff1	0.80004793
174	0x3eb35011	0.35022023
175	0x3d286dd8	0.04112038
176	0x3f630798	0.8868346
177	0x3d11b533	0.035573196
178	0xbd9a962b	-0.075481735
179	0x3f7fdec3	0.9994928
180	0x3e02631d	0.12733121
181	0xbd8e4c2c	-0.069481224
182	0xbbc3769b	-0.0059650666
183	0xbf793d23	-0.9735891
184	0x3f4bf373	0.7966835
185	0x401dcdc2	2.4656835
186	0xbfd7ae61	-1.6850091
187	0xbf39e42c	-0.7261379
188	0x3e892644	0.26787007
189	0xbcd4fd42	-0.025999669
190	0xbe1898a6	-0.14901981
191	0x3f92ab08	1.1458445
192	0x3e80a50b	0.25125918
193	0x3f712320	0.9419422
194	0x3f565b21	0.837328
195	0x3f042563	0.5161955

bias f4 [28]
0	0xbf71cf39	-0.9445682
1	0xbb1f0ba9	-0.0024268425
2	0x3d13d4a9	0.03609148
3	0x3bcd4268	0.0062640198
4	0xbef57a33	-0.47944793
5	0xbd7653fe	-0.060138695
6	0xbec07318	-0.3758781
7	0xbf82af3d	-1.0209728
8	0xbc33501c	-0.0109443925
9	0xbc3a5a4a	-0.011374066
10	0x3c425b36	0.011862567
11	0xbe9547a5	-0.29156223
12	0xbe7c8a66	-0.2466217
13	0xbf2321b6	-0.63723314
14	0xbc71de22	-0.014762433
15	0x3d8bf5d5	0.06833998
16	0x3d621a60	0.055200934
17	0xbcc3771b	-0.023860505
18	0x3e27ca4e	0.16385767
19	0xbe019434	-0.12654191
20	0xbba17541	-0.004927308
21	0x3d91e4f1	0.07123745
22	0xbe7b3595	-0.24532159
23	0x3df4d76e	0.119551525
24	0xbdf743a1	-0.12073446
25	0xbe7e0693	-0.24807195
26	0x3d55362d	0.05205362
27	0x3e3cc76c	0.18435448

weight f4 [8, 28]
0	0x40431579	3.0481856
1	0x3cf350de	0.029701646
2	0xbf1be616	-0.6089796
3	0xbe741fec	-0.23840302
4	0x4034b975	2.8238194
5	0x3f6abb7d	0.91692334
6	0x3f83a957	1.0286053
7	0x406ca3e3	3.6975029
8	0x3e0d9f18	0.1383022
9	0xbf3898e7	-0.7210831
10	0x3db8217b	0.08990761
11	0x402e9b08	2.7282124
12	0x3fcdf036	1.6088932
13	0x3fe6e107	1.8037423
14	0x3e2df9a4	0.16989762
15	0xbe897888	-0.2684977
16	0x3f38dde7	0.72213596
17	0x3f03f4f8	0.5154567
18	0xbfd15edb	-1.6357073
19	0xbe329a00	-0.17441559
20	0xbe996148	-0.29957032
21	0x3f72de08	0.9487004
22	0x3f8c5b94	1.0965447
23	0xbf367865	-0.7127746
24	0x3e8d601f	0.27612397
25	0x3ca6d2e3	0.02036423
26	0xbe99171d	-0.29900447
27	0xbf62d873	-0.88611525
28	0x406f0fd3	3.7353408
29	0xbf27d83b	-0.65564317
30	0x3e4bbf9c	0.19897312
31	0x3cce969f	0.025218306
32	0x3fde327e	1.7359159
33	0x4002f106	2.045961
34	0x406619a1	3.5953143
35	0x404e972b	3.2279766
36	0xbf8b819a	-1.0898926
37	0xbe78f6e0	-0.24312925
38	0x3f46d277	0.77664894
39	0x3ee10df3	0.43955955
40	0x40696f1a	3.647406
41	0x403648ec	2.8482008
42	0x3d0b5e7a	0.034025647
43	0xbfbdfc26	-1.4842575
44	0xbf79ef74	-0.97631
45	0x3f1473c4	0.57989144
46	0xbfc7ac10	-1.5599384
47	0x3f9723e1	1.1807824
48	0xbe6fe9dc	-0.23429054
49	0xbeed0114	-0.46289885
50	0x3fa2b49e	1.271137
51	0x3e436117	0.19080006
52	0x3fb3ab4f	1.4036654
53	0x40049311	2.0714762
54	0xbe3ca663	-0.18422846
55	0x3d25deda	0.04049573
56	0x4033150b	2.7981594
57	0x3f2b3de9	0.6689134
58	0xbf5a4fc3	-0.85277957
59	0x3d3db155	0.046311695
60	0x408359ea	4.104726
61	0x3f18f774	0.59752584
62	0x404c5abe	3.1930385
63	0x4089a5db	4.301496
64	0x3e070244	0.13184458
65	0xbeb502da	-0.35353738
66	0xbecbe0c1	-0.3981991
67	0x3fb1d041	1.3891679
68	0x401b2b30	2.424511
69	0x3fef90ab	1.8716024
70	0x3ea7e5b9	0.32792452
71	0xbfcd8749	-1.6056911
72	0xbee4652e	-0.44608444
73	0x3e9b5120	0.3033533
74	0xbfb145ac	-1.3849387
75	0x3f28b858	0.65906286
76	0xbd65b266	-0.056078337
77	0x3eaf8680	0.34282303
78	0x4006d91d	2.1070015
79	0x3d7a1d9a	0.061063386
80	0x3f855ff6	1.041991
81	0x3e7fc01e	0.2497563
82	0xbf6a0f5a	-0.91429675
83	0xbf3e2292	-0.742715
84	0x4052d285	3.294099
85	0x3f22a456	0.63532007
86	0xbee97245	-0.45594993
87	0xbf22050b	-0.63288945
88	0x3f7f2788	0.99669695
89	0xbe3539f5	-0.1769789
90	0x401a8414	2.4143114
91	0x3ff80253	1.9375709
92	0x3f40a736	0.75255144
93	0xbde28219	-0.110599704
94	0xbecf2630	-0.40458822
95	0x3fdcabd7	1.7239941
96	0x3f9eadb5	1.2396761
97	0x406cdd2b	3.700999
98	0x3ea2092b	0.3164762
99	0xbee321dc	-0.4436177
100	0x3ee17acf	0.44039008
101	0x3f0724a6	0.52790296
102	0xbf955431	-1.1666318
103	0x3e5a44b2	0.21315268
104	0xbef1c0c8	-0.47217393
105	0x3f530e3b	0.8244359
106	0x3f47ef15	0.78099185
107	0xbf91cfa8	-1.1391497
108	0x3e45cf06	0.19317254
109	0xbea3c0ab	-0.31982931
110	0xbf8d1fd3	-1.1025337
111	0xbfe2aa30	-1.7708187
112	0xc0038c87	-2.055452
113	0xbfcec982	-1.6155245
114	0x3f21500d	0.6301277
115	0x3dc30040	0.09521532
116	0xbf4cbe8a	-0.7997824
117	0xbeb1e250	-0.34742975
118	0xc03654e4	-2.8489313
119	0x3e3337bb	0.17501728
120	0xbea10478	-0.31448722
121	0x3db03155	0.08603159
122	0xbe663f72	-0.2248514
123	0x3eebc66f	0.4604983
124	0xbf777f19	-0.9667831
125	0xbf2e0a71	-0.6798468
126	0xbeb65da5	-0.3561832
127	0x3eb982a5	0.36232486
128	0x3ea57448	0.32315278
129	0x3f908882	1.1291659
130	0x3d960bac	0.07326445
131	0xbed6754e	-0.4188637
132	0x3f2c4b0f	0.6730203
133	0xbf4066ac	-0.75156665
134	0xbe8b1d28	-0.27170682
135	0xbd96401a	-0.07336445
136	0xbd6491cf	-0.055803116
137	0x3d858d36	0.065210745
138	0x40165271	2.3487818
139	0x3ee62160	0.44947338
140	0x40830fe0	4.095688
141	0x3f4da3bd	0.8032797
142	0xbfd62cf6	-1.6732471
143	0x3e796586	0.24355134
144	0x3faa277b	1.3293298
145	0x3dfec449	0.12439782
146	0x404855af	3.1302297
147	0x4029ac11	2.651127
148	0xbc329882	-0.0109006185
149	0xbd400dc0	-0.046888113
150	0x3f57375c	0.84068847
151	0x3fd22423	1.6417278
152	0x3fac4a3e	1.3460157
153	0x406fb4a0	3.7453995
154	0xbdbd337d	-0.09238336
155	0xbf29f409	-0.66387993
156	0x3ebea855	0.37237802
157	0xbee2f96f	-0.44330928
158	0xbfb3ff97	-1.4062375
159	0x3f661500	0.89875793
160	0xbfa2abef	-1.270872
161	0x3f25ae3c	0.64718986
162	0x3f15fcb7	0.5858874
163	0xbfc3dd52	-1.5301917
164	0x3bdc8bed	0.0067305476
165	0x3f18f4e8	0.597487
166	0xbfb22695	-1.3918024
167	0xc01c00ad	-2.4375412
168	0x4033d70b	2.8100002
169	0x3f34cc57	0.706243
170	0xbef4579a	-0.47723085
171	0xbf11cc87	-0.5695271
172	0x403d0ae7	2.9537904
173	0x3f08e479	0.5347362
174	0x403af1e9	2.921015
175	0x40900184	4.500185
176	0x3e03af0b	0.12859742
177	0xbf68b625	-0.9090293
178	0xbf8fca5a	-1.1233628
179	0x402d46d4	2.707448
180	0x40119532	2.2747312
181	0x4013b6b5	2.3080266
182	0x3f6ff3c8	0.93731356
183	0xbfa32938	-1.2746954
184	0xbf7785fc	-0.9668882
185	0x3ece73b5	0.40322652
186	0xbf5b7a99	-0.85733944
187	0x3f99a404	1.2003179
188	0xbed59ba8	-0.4172032
189	0x3f0fc87a	0.5616528
190	0x40186698	2.3812618
191	0xbefcd758	-0.49383044
192	0x3f8674a2	1.0504344
193	0xbea7e0ab	-0.32788596
194	0xbfb34cc8	-1.4007807
195	0xbf348734	-0.70518804
196	0x40567d16	3.3513846
197	0x3f53e876	0.8277658
198	0xbed8ac80	-0.42319107
199	0xbe6ca815	-0.23110993
200	0x40083fca	2.1288934
201	0x3ed7d976	0.42158097
202	0x401c3759	2.4408782
203	0x408df6d6	4.4363813
204	0x3f05522d	0.52078515
205	0xbec3da8f	-0.38252684
206	0xbf844c16	-1.033572
207	0x400c2e26	2.1903167
208	0x3ff4296d	1.9075142
209	0x402706a4	2.6097803
210	0x3f0488fd	0.5177153
211	0xbf0f5457	-0.5598807
212	0xbf249431	-0.6428862
213	0x3f0ed895	0.5579923
214	0xbfa46872	-1.2844374
215	0x3f444389	0.7666555
216	0xbf3ef03f	-0.74585336
217	0x3f5e05f9	0.86727864
218	0x3fe1000e	1.7578142
219	0xbf4d88e3	-0.80287
220	0x3f6250e1	0.8840466
221	0xbd9eb13f	-0.07748651
222	0xbfcb6985	-1.5891577
223	0xbfb156bc	-1.3854594

bias f4 [8]
0	0xc040d017	-3.0127008
1	0xc0452824	-3.080575
2	0xc04147e9	-3.020014
3	0xc02a39c4	-2.6597757
4	0x3faeffac	1.3671775
5	0xc01d46fb	-2.4574573
6	0xc02fcbc9	-2.746813
7	0xc041da49	-3.028948

weight f4 [24, 28]
0	0x3dab759c	0.083720416
1	0xbea3a1bd	-0.31959334
2	0xbdd27aa6	-0.102772996
3	0x3dd1e341	0.10248423
4	0xbf364df7	-0.71212715
5	0xbf411399	-0.7542053
6	0xbebc2345	-0.3674566
7	0x3dc541f2	0.09631719
8	0xbe04dafb	-0.1297416
9	0x3d271638	0.040792674
10	0xbe9d8994	-0.30769026
11	0x3f3d246e	0.7388371
12	0xbef6c0cb	-0.48193964
13	0x3f15a64a	0.5845686
14	0xbe71d754	-0.23617297
15	0x3f33d600	0.70248413
16	0xbe8c31e3	-0.2738181
17	0x3e8c1852	0.27362305
18	0xbd918a67	-0.07106476
19	0xbe221201	-0.1582718
20	0xbe501608	-0.20320904
21	0xbd086a88	-0.03330472
22	0xbf07375a	-0.52818835
23	0xbf1daa95	-0.6158841
24	0xbf35ece3	-0.71064585
25	0xbed3b246	-0.4134695
26	0xbbd34b0a	-0.0064481543
27	0xbebcbd4a	-0.36863166
28	0x3ec9d7cc	0.39422452
29	0x3e8eaf82	0.27868277
30	0xbe17d89b	-0.14828722
31	0x3d2c8a61	0.042124156
32	0x3c888faf	0.016670076
33	0xbee61606	-0.44938678
34	0x3dd24fea	0.10269149
35	0xbeec22e4	-0.4612037
36	0x3e010166	0.1259819
37	0x3da39f2a	0.079893425
38	0xbe43fe38	-0.19139946
39	0xbdae63a6	-0.085151
40	0x3d63cbd9	0.055614326
41	0x3e25d9c3	0.16196351
42	0xbe713d12	-0.23558453
43	0x3ec8b717	0.39202186
44	0x3f100e2e	0.56271636
45	0xbd89f7eb	-0.0673674
46	0x3dcb27aa	0.09919675
47	0x3debe967	0.11519127
48	0x3d815e71	0.063168414
49	0xbe369f9e	-0.17834327
50	0xbec05506	-0.37564868
51	0xbcba828d	-0.02276733
52	0xbe97a9b5	-0.29621664
53	0x3db76d07	0.08956342
54	0x3eecb25f	0.46229836
55	0xbeebc89f	-0.460515
56	0xbdcdc57b	-0.10047432
57	0x3eafd9e0	0.34345913
58	0xbd5d0b91	-0.05396611
59	0xbe3f4885	-0.18680008
60	0xbea380e4	-0.31934273
61	0xbe057a89	-0.13035025
62	0x3f154aa3	0.5831701
63	0xbebad133	-0.3648773
64	0x3e28a78d	0.16470166
65	0x3c67460c	0.014115822
66	0x3e1d6aae	0.15372726
67	0xbf0a4394	-0.54009366
68	0x3e7b8f10	0.24566293
69	0x3f0ab238	0.5417819
70	0xbeaae60c	-0.33378637
71	0x3e62e3d5	0.22157224
72	0xbeade0e4	-0.3396064
73	0x3d293b43	0.041316282
74	0xbec5dbad	-0.38644162
75	0xbed1ef8b	-0.4100307
76	0xbed0568f	-0.4069104
77	0x3efe0821	0.49615577
78	0xbf12029e	-0.57035244
79	0xbeffef7e	-0.49987406
80	0xbe7dd48b	-0.2478811
81	0xbdb83d04	-0.08996013
82	0xbf32afd7	-0.6979956
83	0xbf175aa8	-0.59122705
84	0x3d8897bb	0.06669565
85	0xbd119158	-0.035539
86	0xbe25d958	-0.16196191
87	0xbbdf7053	-0.00681881
88	0xbf7f545b	-0.9973809
89	0xbf7365ce	-0.95077217
90	0xbf03d4de	-0.51496685
91	0x3cda86d7	0.026675625
92	0x3dce3aeb	0.100698315
93	0x3eb983d2	0.36233383
94	0x3d86409c	0.06555292
95	0x3f2fa6d7	0.6861395
96	0xbf0b3b82	-0.54387677
97	0x3f2f09c0	0.6837425
98	0xbe8e05d2	-0.27738816
99	0x3ee1ecfb	0.44126114
100	0xbe9e84d7	-0.30960724
101	0x3e695fcd	0.22790451
102	0xbe02b837	-0.12765585
103	0xbdc76bec	-0.09737381
104	0xbe22a163	-0.15881877
105	0xbe156efd	-0.1459312
106	0xbf803e27	-1.0018967
107	0xbf6c5e14	-0.9233105
108	0xbf7c7a46	-0.98624074
109	0xbf44ca56	-0.7687124
110	0xbea6349b	-0.3246201
111	0xbf1a219b	-0.6020753
112	0x3e7c0389	0.24610724
113	0xbb07d2ce	-0.0020725015
114	0xbe1d64f5	-0.15370543
115	0x3d0fef5b	0.035140377
116	0x3e969c5e	0.29416174
117	0xbd86c41a	-0.06580372
118	0x3dcd261a	0.10017033
119	0xbea6164e	-0.32438892
120	0xbd47b998	-0.04876098
121	0xbc6f9f43	-0.014625373
122	0x3de2259a	0.11042328
123	0xbe5bd445	-0.21467693
124	0xbcba6fd8	-0.02275841
125	0xbd92710a	-0.07150467
126	0x3d4d04d3	0.05005343
127	0x3efcc47e	0.49368662
128	0x3f3028e9	0.68812424
129	0xbea93e1e	-0.33055204
130	0x3e782917	0.24234425
131	0x3e200d0d	0.15629978
132	0x3e4390d9	0.19098224
133	0xbea06706	-0.313286
134	0xbe6180d5	-0.22021802
135	0xbdf26089	-0.11834819
136	0xbe8c77b6	-0.27435082
137	0x3e4183f0	0.18897986
138	0x3f3fdaa6	0.74943006
139	0xbefcf19b	-0.4940308
140	0x3c6d0ae0	0.014467925
141	0x3ea341d8	0.31886172
142	0xbda0b720	-0.07847428
143	0xbc58ec3c	-0.013239916
144	0xbf2d2c46	-0.6764568
145	0xbdea84da	-0.11451121
146	0x3ebbf713	0.3671194
147	0xbdd285e4	-0.10279444
148	0x3dd7c9cf	0.10536539
149	0x3da39da4	0.07989052
150	0xbe00036a	-0.12501302
151	0xbeeaae65	-0.45836177
152	0x3dee771d	0.11643813
153	0x3ec1d5c6	0.3785841
154	0xbf10a251	-0.56497675
155	0x3ea4450d	0.32083932
156	0xbebdd8d1	-0.3707948
157	0x3e903459	0.28164938
158	0xbf2773c6	-0.6541103
159	0xbf406dc4	-0.7516749
160	0xbf012a25	-0.5045493
161	0x3f2ba06e	0.6704167
162	0xbf6ba681	-0.9205094
163	0xbf3135c8	-0.6922269
164	0xbeff21f2	-0.49830586
165	0xbd794714	-0.0608588
166	0xbf77ec90	-0.9684534
167	0xbf49e9ea	-0.7887255
168	0x3e374bcd	0.1790001
169	0xbe653bdb	-0.22386114
170	0x3d855df9	0.065120645
171	0x3c8d3247	0.017235888
172	0xbf609747	-0.8773083
173	0xbf29658a	-0.6617056
174	0xbf225549	-0.63411385
175	0xbe9296f2	-0.28630787
176	0xbe0de888	-0.13858235
177	0x3e0facb2	0.14030722
178	0xbdb6e1b6	-0.0892977
179	0x3f78c56a	0.9717623
180	0xbf2dee78	-0.67942
181	0x3f2015f4	0.625335
182	0xbe752c18	-0.23942602
183	0x3f2a40e7	0.66505283
184	0xbe914daf	-0.2837958
185	0x3e86be23	0.26316938
186	0xbd904501	-0.070444115
187	0xbe0f8ee2	-0.14019349
188	0xbe8e0f37	-0.27745983
189	0xbd7cb829	-0.061699066
190	0xbf7cb76d	-0.98717386
191	0xbf740372	-0.9531776
192	0xbf3a4f3e	-0.72777164
193	0xbecfb10a	-0.40564758
194	0x3e1f7e69	0.15575565
195	0xbeb76a5b	-0.3582333
196	0x3e8091b5	0.25111166
197	0x3e9d42df	0.3071508
198	0xbe9715dc	-0.29508865
199	0x3da94ac9	0.08266217
200	0x3eb3d7e7	0.35125658
201	0xbdee0569	-0.11622126
202	0x3e2d487c	0.16922182
203	0xbd631c69	-0.055447016
204	0xbdf0ca21	-0.11757303
205	0x3e62274f	0.22085308
206	0xbe16c35b	-0.1472296
207	0xbc61108f	-0.013736858
208	0x3c95f246	0.018304002
209	0x3e7e40d6	0.2482942
210	0xbe0c52c7	-0.13703452
211	0x3f128e22	0.5724813
212	0x3f4314a0	0.76203346
213	0xbece102d	-0.40246716
214	0x3e810b96	0.25204152
215	0xbd8778af	-0.066148154
216	0xbc10013d	-0.008789358
217	0xbe953975	-0.291454
218	0xbe5b6dc5	-0.21428593
219	0xbe3224cf	-0.17396854
220	0xbe889f2f	-0.26683947
221	0xbd07e361	-0.03317583
222	0x3ee055bc	0.4381541
223	0xbf192b90	-0.59832096
224	0xbd26d06a	-0.040726103
225	0x3ec784b9	0.38968447
226	0x3e05453a	0.13014689
227	0xbdaf5737	-0.08561557
228	0xbf27e65c	-0.65585876
229	0xbe0813a0	-0.13288736
230	0x3f06b609	0.52621514
231	0xbf13a1db	-0.57668847
232	0x3ebd6c7e	0.36996835
233	0x3e47201c	0.19445843
234	0xbe12e57d	-0.14345355
235	0xbf1dd57b	-0.6165387
236	0x3e2d1c79	0.16905393
237	0x3f07f6f0	0.5311117
238	0xbee52f86	-0.4476282
239	0xbdec2c68	-0.11531907
240	0xbed44253	-0.4145685
241	0x3eba4adf	0.36385247
242	0xbefb98db	-0.49140057
243	0xbefcea3f	-0.49397466
244	0xbecfd681	-0.4059334
245	0x3ebf66be	0.37383074
246	0xbf6326d5	-0.8873113
247	0xbee50a69	-0.44734505
248	0xbe8b7fdf	-0.27245995
249	0xbd08905d	-0.0333408
250	0xbf3f4f68	-0.7473054
251	0xbf067e04	-0.52536035
252	0x3de9fe94	0.1142551
253	0xbe63e3be	-0.22254845
254	0xbcab9c5f	-0.020948587
255	0xbdccdef9	-0.10003466

bias f4 [24]
0	0xbd4f4a15	-0.05060776
1	0xbd502684	-0.05081798
2	0xbe212007	-0.15734874
3	0xbdfe07ef	-0.12403857
4	0xbd3acf1e	-0.04560768
5	0xbdeefd1a	-0.11669369
6	0xbe66bee6	-0.2253376
7	0x3d394ccb	0.04523925
8	0xbe1ee452	-0.15516785
9	0x3d1ad77c	0.03780316
10	0xbb69b76b	-0.0035662304
11	0xbd79ac1f	-0.060955163
12	0x3db76925	0.089556016
13	0xbe0925fe	-0.13393399
14	0xbcb0f1c5	-0.02159966
15	0x3d1bd769	0.038047228
16	0x3e0171bd	0.12641044
17	0xbd4ccc88	-0.049999744
18	0xbe02c771	-0.12771393
19	0xbe44af00	-0.19207382
20	0x3e1316b4	0.1436413
21	0xbdeae971	-0.11470307
22	0xbd72b100	-0.05925083
23	0xbde31c98	-0.11089438
