MPC-Net_solution/policy/mpcPolicy_2022-12-18_025805.pt (torch, 7895 bytes, 6 tensors)

weight f4 [28, 7]
000000 3e 50 96 3e f7 80 05 bf 22 63 a2 bf 38 27 53 3c
       0.29358095 -0.5214991 -1.2686503 0.012887768
000010 bf 4e 9f bf 40 31 8d be 75 9e 0c bf 3f 61 c6 bc
       -1.2445906 -0.27576637 -0.54929286 -0.024216292
000020 7b dd 32 be a7 e1 88 3f 5a 23 2d 3e cb 40 30 3f
       -0.174673 1.0693864 0.16908017 0.68848866
000030 1d c7 a5 3f 49 8c 19 3f 6a 7b 17 c1 90 13 fa 3f
       1.295139 0.59979683 -9.46763 1.953722
000040 d8 e5 96 3f 54 88 2e c0 a1 bb 1a 40 11 70 2f 3f
       1.1788893 -2.7270708 2.417702 0.68530375
000050 a6 04 df bf 9a ff 17 3d 2d 35 5d be 04 a8 18 c0
       -1.7423294 0.037108995 -0.21602316 -2.3852549
000060 8f 2d dd 3f 25 06 8c bf 74 80 11 c0 b8 6d 6e be
       1.7279528 -1.0939375 -2.2734652 -0.23284042
000070 d9 de 79 3e 98 3d 90 bf 93 bc ef 3e 1a d7 84 3f
       0.24401416 -1.1268797 0.46823558 1.0378144
000080 0a dd d7 be e8 2c 5f be 65 35 01 be ef cb 41 be
       -0.42160827 -0.21794474 -0.12618025 -0.1892545
000090 df 30 de 3e b8 8a e0 bd 42 15 1a c0 78 5a 37 3f
       0.4339666 -0.109639585 -2.4075475 0.7162242
0000a0 3e 3b 8f 3e 6d 2a 72 bf 4b d6 82 bf a3 50 1d 40
       0.27974886 -0.94595987 -1.0221647 2.4580467
0000b0 ac be d0 3f 24 61 84 3e 84 e4 9d bd b2 b9 2b be
       1.6308188 0.25855362 -0.077096015 -0.16770056
0000c0 55 af 0b bf 93 53 29 3f 74 45 d0 bf 2d a3 ce 3f
       -0.5456441 0.6614315 -1.6271195 1.6143547
0000d0 35 da cc bf d1 45 f1 bf 01 94 6e bf 56 e0 a7 bf
       -1.6004092 -1.8849431 -0.93194586 -1.3115337
0000e0 0b 88 bc be 39 f6 83 3e b8 f2 1c 40 fb 37 5d bf
       -0.36822543 0.2577379 2.4523144 -0.86413544
0000f0 93 45 68 3d 4f b5 ab 3e da e6 e8 3d cf 09 0e be
       0.056706976 0.33536765 0.113721564 -0.13870929
000100 98 77 1b c0 17 d9 86 be 09 ee 35 3f 27 04 90 bf
       -2.4291744 -0.263375 0.7106634 -1.1251267
000110 ac d6 54 be 60 cd 3f 3f 21 b9 16 bd 73 dc 28 40
       -0.20785016 0.7492275 -0.036797646 2.6384552
000120 9f e0 eb 3f 39 a2 9c bf 30 3c 3c 3f 64 81 0e 3f
       1.8427924 -1.2237006 0.7352934 0.55666184
000130 e6 bf 2a bf ab 9c 7d 3e 7b a0 3b 40 31 f8 b5 3f
       -0.66699064 0.24766795 2.93167 1.4216367
000140 db 5c 41 3f bb 3d a7 3f 56 48 5a 3f ae 06 6d 3f
       0.7553231 1.3065714 0.85266626 0.9258832
000150 ad 83 82 bc d4 b7 06 be 99 cd 42 bd 4d 45 1d 40
       -0.015931929 -0.13156062 -0.047559354 2.4573548
000160 ee 85 16 bf 6c d3 54 be 16 25 44 3f 31 21 35 3e
       -0.5879811 -0.20783776 0.7661909 0.17688443
000170 26 c0 e0 3f fe 35 fe 3c f1 e5 f1 3e af f2 b7 3f
       1.7558639 0.031031605 0.47245744 1.4370936
000180 a9 d2 41 3f af 55 09 3f f7 6c 1a c0 ff e5 96 3f
       0.75712067 0.5364637 -2.4129007 1.1788939
000190 57 dd 38 40 19 31 25 3f 27 74 15 bf c7 ff 84 3f
       2.8885095 0.6452804 -0.5838036 1.0390557
0001a0 13 c9 61 3f 0e 69 05 be 99 f2 e9 3e 4d c1 d5 bd
       0.8819744 -0.13028356 0.456929 -0.1043726
0001b0 f3 59 b1 3f 95 76 63 3f 90 19 1b 3f 4c 4b 51 3f
       1.3855575 0.88852817 0.6058588 0.8175552
0001c0 cd a7 17 bd d1 05 76 bd 48 d3 4a 40 22 4c 45 3f
       -0.03702526 -0.06006414 3.1691456 0.77069294
0001d0 5d 0c 45 bd 8d 83 35 3f b2 43 ab 3e 1d 5d cb c0
       -0.048107494 0.70903856 0.33450085 -6.3551164
0001e0 2e d4 ad 3f b3 f2 af 3e c6 d1 df 3e 1b 93 20 40
       1.3580377 0.34364852 0.43714732 2.5089786
0001f0 c8 3a a8 3f 09 ea 5b 3f a5 f4 98 3e 89 70 61 3f
       1.3142939 0.85903984 0.2987415 0.8806234
000200 99 ad f7 bf 5b 66 83 bb 40 3f 08 3f 04 ca 91 be
       -1.9349853 -0.0040100045 0.5322151 -0.28474438
000210 1d 43 02 3e 0c 8a ef 3e 2d 1f a2 3f 46 27 4e bf
       0.12720914 0.4678501 1.2665764 -0.80528677
000220 c8 e2 73 bf 07 62 8f 40 44 15 9d 3f e3 4b 89 bf
       -0.95267916 4.480716 1.2272115 -1.0726284
000230 98 cf 4a 40 c6 36 3c c0 5d 7b 1f bf 72 04 9f 3f
       3.1689205 -2.940843 -0.6229761 1.2423232
000240 6c 04 53 bf 91 9c 94 3e 98 bb 85 3f ac 33 29 3e
       -0.8242862 0.290257 1.0447874 0.16523618
000250 ac ef b4 3f f4 48 42 3f 30 a9 f8 3f 6a 92 8e 3f
       1.4135642 0.7589257 1.9426632 1.1138432
000260 88 5a 68 3f 51 7e ae 3f d2 16 ac be f0 57 b7 3f
       0.9076314 1.3632299 -0.3361116 1.4323711
000270 24 18 88 bf 83 8e 6b 3f d2 b4 78 3f 02 77 ec bd
       -1.0632367 0.9201433 0.9715091 -0.115461364
000280 36 fb 92 3e 44 a2 46 bf 16 6c a2 3f e0 75 82 3e
       0.28707284 -0.7759135 1.2689235 0.25480556
000290 cd b2 e6 3c b2 79 84 c0 ca 07 15 bf e0 ac ae 3f
       0.02816143 -4.1398554 -0.5821501 1.3646507
0002a0 ec 95 40 41 3a 26 0e c0 53 7f 4f 40 4e 74 f5 be
       12.036602 -2.2210832 3.2421463 -0.47940296
0002b0 d5 9a 02 c0 26 ce 87 3f 53 34 e3 3e 04 10 15 41
       -2.0407002 1.0609787 0.44375858 9.31641
0002c0 c5 de d1 bf 48 b8 5e 3e 77 43 a2 bf aa 09 e6 bf
       -1.6396109 0.21749985 -1.2676839 -1.7971699
0002d0 59 af 1f bf 38 36 a4 bf 69 b5 01 3f f4 05 93 bf
       -0.62376934 -1.2829046 0.50667435 -1.1486192
0002e0 5a f7 98 3f a4 a7 4e 3f 69 cf a5 3f 54 3f 8c 3f
       1.1950486 0.8072455 1.2953922 1.0956826
0002f0 41 b6 0c 3f a4 98 7b be bb 34 54 40 06 c6 e0 be
       0.549656 -0.24569947 3.3157184 -0.4390108
000300 f1 88 2f 3e 3a 7c 58 3f c5 0b ab be 68 6a 0a bf
       0.17142083 0.84564555 -0.33407417 -0.54068613

bias f4 [28]
000000 73 f8 61 bf c2 fb 4d be 16 5b 9f bf 61 88 b9 3f
       -0.8826973 -0.20115569 -1.2449672 1.4494745
000010 6c c9 40 bf 39 db 57 bf 8e 93 0e c0 dc d0 9a 3f
       -0.75307345 -0.8431888 -2.227756 1.2094989
000020 87 4e 9d bf d4 9b 32 be 40 d5 c5 bf b3 c5 3d bf
       -1.228959 -0.17442256 -1.5455704 -0.7412979
000030 df 94 93 bf 86 a6 41 be 0c d3 20 c0 3d c5 e1 3e
       -1.1529807 -0.1891118 -2.5128813 0.44095793
000040 e6 fe b8 bf 25 68 83 bf 3f 53 02 be b1 a9 00 bf
       -1.4452789 -1.0266157 -0.12727068 -0.5025893
000050 a2 84 79 3f 40 f5 b5 bf 60 4d 0f 3f 02 e8 54 3f
       0.97468007 -1.4215469 0.5597744 0.83166516
000060 9c 21 d5 3f 76 d5 82 3f ea a1 7b 3f 33 c4 b6 bf
       1.6650882 1.0221393 0.98293936 -1.4278625

weight f4 [8, 28]
000000 df cb a5 3f 07 07 bf 3e 58 0f ee 3f bd 4f ad bf
       1.2952842 0.3731005 1.8598433 -1.3539959
000010 a9 45 42 3f 52 00 2e 40 0e cf 24 3f 0d 0c ab bf
       0.7588754 2.7187696 0.6437844 -1.3363053
000020 1b b0 ef 3e 35 5c 2f 3f 54 91 37 3f 1b 0c 95 bd
       0.46814045 0.6850007 0.7170613 -0.072776996
000030 94 eb f4 3f fd 3e 42 c0 a4 40 09 40 fa b0 9c bf
       1.9134393 -3.0350945 2.1445704 -1.2241509
000040 9b 5b ae 3f c8 2a 71 3f 4c 2c 86 be 71 3b 04 40
       1.3621706 0.94205904 -0.2620567 2.066128
000050 3b 39 30 bf 3d fa c7 3e 8b c4 55 bf aa 4d c0 bf
       -0.68837327 0.39058104 -0.83503026 -1.5023701
000060 82 7a f5 bf 18 41 2e bf d6 34 8f bf 3f 27 c9 3e
       -1.9178011 -0.68068075 -1.1187999 0.39287755
000070 c3 42 05 3f 07 57 cf 3e ce 84 91 bf d0 34 91 3f
       0.52054995 0.40496084 -1.1368654 1.1344242
000080 6e 93 86 3f 41 0e 9c bd 4e c9 bc bf d3 f4 a4 3f
       1.0513742 -0.07619906 -1.4748933 1.2887214
000090 81 9b b1 bf 53 77 26 bd 11 fa 68 bf fb a2 21 bf
       -1.3875581 -0.04064114 -0.9100657 -0.63139313
0000a0 8c 06 60 bf 12 7e 3c 3c 35 e1 b3 bf d5 b3 ea be
       -0.8750999 0.011504667 -1.4053103 -0.45840326
0000b0 bb e6 04 c0 60 5a 16 c0 58 46 af 3d f6 46 2c bf
       -2.0765827 -2.349266 0.08558339 -0.6729578
0000c0 d6 6f f6 3f b4 b1 c7 be 67 03 83 be d2 3d 93 be
       1.925288 -0.39002764 -0.25588533 -0.28758103
0000d0 4c 4e 83 3f 2f c9 45 40 69 ad fa 3d 4e a5 fe bf
       1.0258269 3.0904043 0.122401066 -1.9894197
0000e0 c5 eb a3 3f 9a 7f ed 3e 96 30 e8 3f b5 df 99 bf
       1.2806326 0.46386415 1.8139827 -1.2021395
0000f0 de 5a 7d 3f e8 76 0f 40 de 03 3e 3f 06 85 b4 bf
       0.9896678 2.2416325 0.7422465 -1.4103096
000100 ff c0 9c 3d 9a da 43 3f 09 c3 35 3f d0 10 9c be
       0.076539986 0.76505435 0.71000725 -0.30481577
000110 58 16 f9 3f 51 b6 42 c0 af 19 f4 3f cc 85 e7 be
       1.9459944 -3.0423777 1.9070338 -0.45219266
000120 b4 80 a2 3f ef 8b 7e 3f 21 1c 94 be 8f 25 e4 3f
       1.2695527 0.9943227 -0.2892771 1.7823962
000130 76 82 71 bf 46 be 36 3f a0 50 2d bf e9 26 d2 bf
       -0.9433969 0.71384084 -0.6770115 -1.6418124
000140 c7 fe f6 bf 74 7a 84 bf be 83 2b bf 11 fb 0c 3e
       -1.9296502 -1.034987 -0.669979 0.13767649
000150 d3 06 9d 3f ab 47 33 3f 55 8b 1a 40 4e 3f c3 bf
       1.2267708 0.7003123 2.4147542 -1.5253694
000160 09 fb 58 3f 9d d0 3f 40 46 af 6c 3f 51 b6 94 bf
       0.8475805 2.9971077 0.92454946 -1.1618139
000170 3d 83 4b 3e 78 a3 37 3f ac 0c 37 3f 91 a8 a3 be
       0.19874282 0.7173381 0.7150371 -0.31964543
000180 e8 56 02 40 9d 7c 40 c0 41 b7 0e 40 63 90 1c bf
       2.0365543 -3.0076058 2.229935 -0.61157817
000190 25 f3 46 3f 47 fc 86 3f 86 0f f1 be 19 38 03 40
       0.7771476 1.0545739 -0.47082156 2.050299
0001a0 c4 2c 60 bf 2f 4f 13 3f 15 4b 88 bf d7 67 e5 bf
       -0.87568307 0.575427 -1.0647913 -1.7922314
0001b0 68 cc f1 bf d6 7c 5a bf 93 57 6e bf ec 50 a7 3e
       -1.8890505 -0.85346735 -0.9310238 0.32678926
0001c0 6d fa 4e 3e fb 87 0c c0 33 77 97 bf 8a 6d cc 3f
       0.20212717 -2.1957996 -1.1833252 1.5970929
0001d0 1b cc 86 bf c0 c8 05 3e 9c ea a3 bf 17 94 00 bf
       -1.0531038 0.13064861 -1.2805972 -0.5022597
0001e0 9f 4a a7 bf c2 92 7f 3e af 18 cd bf c1 ee ed bf
       -1.3069648 0.24958327 -1.6023158 -1.8588487
0001f0 d1 ac c1 be 9a 45 12 bf 20 3b 30 c0 82 5c 3c bf
       -0.3782716 -0.57137454 -2.7536087 -0.73578656
000200 3a 84 d6 bf cd fa a4 be af d0 ce 3f 5e 6e 96 3f
       -1.6759102 -0.32222596 1.6157435 1.1752431
000210 6b 49 8a 3f d1 11 a5 bf c2 5d 56 be 3f 1d be bf
       1.0803655 -1.2896062 -0.20934203 -1.4852675
000220 b4 94 ee bf b6 fe ab be dc 2c f7 bc 74 5f 9b bf
       -1.863913 -0.33592767 -0.030172758 -1.2138505
000230 d4 86 33 3f 59 9f f0 3f 14 b4 3c 40 11 6e 2b c0
       0.70127606 1.8798629 2.948491 -2.678593
000240 47 24 d7 3e e7 b6 11 40 2d a8 ea 3f c8 51 23 bf
       0.42019865 2.2767885 1.8332573 -0.63796663
000250 eb b5 20 40 be ab 59 3e 63 ef f9 3f ca 80 10 3f
       2.5111034 0.2125692 1.952618 0.56446517
000260 6f bf 3b 3f 38 04 51 3f a0 6e 06 40 09 c7 a3 bf
       0.7333898 0.8164706 2.100502 -1.2795116
000270 34 b0 28 40 32 28 bf 3f 6b 83 b7 bf d3 f2 b2 3f
       2.6357546 1.4934142 -1.433698 1.3980354
000280 e8 61 14 c0 56 da 24 3f 20 e3 b0 be a1 31 5d bf
       -2.3184757 0.64395654 -0.34548283 -0.8640385
000290 f8 9b 00 bf 69 5e e4 bf 70 a2 37 3e e8 bb c5 3f
       -0.5023799 -1.7841312 0.17933059 1.544797
0002a0 8b c0 87 3f b8 4b 72 3e 0d 92 12 40 b5 e1 f7 bf
       1.0605634 0.23661697 2.2901642 -1.9365755
0002b0 02 8c 0f 3f d2 4c 73 40 13 e1 8c 3f 17 6b 86 bf
       0.5607301 3.8015637 1.1006187 -1.0501431
0002c0 22 31 a3 3e bf 1b a8 3e 2a 6f 33 3f d6 96 03 bc
       0.31873423 0.3283367 0.700915 -0.008031568
0002d0 85 21 d6 3f 0c 58 1b c0 6e 04 f1 3f 59 2f 90 bf
       1.6728979 -2.427249 1.8829477 -1.1264449
0002e0 aa e4 78 3f 62 3b 9a 3f 72 ba 16 bf 3d 34 4a 40
       0.97223914 1.2049372 -0.5887824 3.1594384
0002f0 5a c2 96 bf d4 9a 8a 3e 7f 52 2d bf e7 7a bf bf
       -1.1778061 0.2707125 -0.67704004 -1.4959382
000300 63 79 0e c0 8e 46 97 bf 2d 38 28 bf 77 95 cc 3e
       -2.2261589 -1.1818407 -0.6571072 0.39957783
000310 79 30 c0 3f 3b f6 c7 3e 51 4e c5 3f 5d 3a 37 bf
       1.5014793 0.39055046 1.5414525 -0.7157343
000320 bd 2a a8 3f 3a 3e 3c 40 cd b6 6a 3f 55 e9 b9 bf
       1.3138043 2.941298 0.9168518 -1.4524332
000330 7c d3 90 bd 13 b1 80 3f c7 9b 16 3f 58 99 fb be
       -0.070715874 1.0054039 0.5883145 -0.4914043
000340 64 b0 f5 3f 97 69 31 c0 d4 37 2b 40 6a b7 ea be
       1.9194455 -2.7720697 2.6752825 -0.4584306
000350 71 49 a5 3f ad ab 5a 3f f1 76 10 3e b7 61 9e 3f
       1.2913038 0.85418206 0.14107873 1.237357
000360 32 35 8b bf c1 e1 30 3f 50 36 9d bf fd da 0b c0
       -1.0875609 0.69094473 -1.22822 -2.185241
000370 fd e2 1c c0 36 58 92 bf 8f 63 79 be 18 bd e3 3d
       -2.4513543 -1.143317 -0.24354385 0.11120051

bias f4 [8]
000000 a2 0f 4b c0 16 63 60 3f b0 2c 68 c0 22 c3 67 c0
       -3.1728292 0.87651193 -3.6277275 -3.621285
000010 7f bb 3d be 16 34 ce bf 48 ab 4e c0 60 5c 8a c0
       -0.18528555 -1.6109645 -3.2292042 -4.3237762

weight f4 [24, 28]
000000 0f 9a b4 3f d1 82 8a bf c5 75 79 bf 71 21 9a 3f
       1.4109515 -1.0821172 -0.9744533 1.2041456
000010 00 50 3c 3f b6 3c 86 bf a4 55 23 bf 2a 5f ee 3e
       0.7355957 -1.0487278 -0.6380255 0.4655698
000020 5a 30 65 bf 59 23 9c 3f 1f e0 33 bf fa b6 6d bf
       -0.89526904 1.2198287 -0.70263857 -0.92857325
000030 66 08 c7 ba e4 76 01 c0 d9 f9 8a bd 60 9c 50 bd
       -0.0015184998 -2.0228815 -0.06785936 -0.05093038
000040 42 d4 18 bf f5 ed 66 bf f1 5d 72 3f 60 91 0b c0
       -0.5969888 -0.90206844 0.94674593 -2.180748
000050 62 fa 21 3f 3c f5 8a be 14 0c 88 bf 98 b2 3c bf
       0.6327268 -0.27140224 -1.0628686 -0.7371001
000060 8c b7 0b 3f eb 56 10 3f 87 1c 15 3f 37 be 97 bf
       0.54576945 0.56382626 0.58246654 -1.1854924
000070 8d 7b c4 3f 25 94 34 c0 fd 12 2f bf bc 4b 8d 3f
       1.5350205 -2.821542 -0.6838835 1.1038737
000080 5e 6e 2f bf bc 8e a0 3a e7 34 f8 be 32 e1 10 3d
       -0.6852778 0.0012249569 -0.4847786 0.035371013
000090 b8 52 2b bf 64 de de 3e 1a 04 97 be 1d ee ce be
       -0.66923094 0.43529046 -0.29495317 -0.4041604
0000a0 ba cf 37 bf e9 0b 90 bf 78 1e 59 be 5f 1e 10 bf
       -0.7180134 -1.1253635 -0.21203029 -0.5629634
0000b0 b0 95 f0 bf d3 bd 38 bf 1d d3 22 40 8e 09 09 be
       -1.8795681 -0.7216465 2.5441353 -0.13382551
0000c0 dc 13 b2 3d ba 8f 16 bf 85 65 b3 3d 5c d7 f1 be
       0.08695194 -0.5881306 0.08759598 -0.4723462
0000d0 17 ed 6b be 2a 86 ef 3d a6 ef 43 bf 20 5d 54 be
       -0.23039661 0.11695512 -0.7653755 -0.2073865
0000e0 0a ed 78 bf cf 6c 39 bf 0c 3d b3 3e 34 e9 38 bf
       -0.9723669 -0.72431654 0.35007513 -0.7223084
0000f0 ae bb bb bf 43 99 a5 3f f3 a3 a8 3d 72 e3 83 3f
       -1.466665 1.2937397 0.08234396 1.0303786
000100 38 eb 8f 3f ca 4e 32 bf 47 16 87 3e f9 d2 26 bf
       1.1243658 -0.6965147 0.26384184 -0.6516567
000110 0c 57 f3 bf 08 4d 2a bf 55 ff 6b be 01 cb 0e c0
       -1.901094 -0.6652379 -0.2304662 -2.2311404
000120 2e 6d 39 bf e1 11 02 bf f1 23 21 3f 02 e8 af 3f
       -0.7243222 -0.5080853 0.6294547 1.3742678
000130 0c 4e 89 be 62 51 55 bf 1f 24 d5 be 35 b1 17 bf
       -0.26817358 -0.83327305 -0.4162912 -0.5925477
000140 ce 74 9c 3d fe bc e3 3e 64 a2 45 bf 6d 3c cf 3e
       0.07639466 0.44480127 -0.77200913 0.4047579
000150 53 90 5f 3f e6 a4 90 bd 2d 30 77 bf bb 4b fd 3e
       0.87329596 -0.07062702 -0.96557885 0.4947184
000160 26 15 df 3f a4 bb 2f bf 84 a2 64 bf 02 0d b9 3f
       1.7428329 -0.6864569 -0.8931048 1.4457095
000170 5c 5a 86 3e 85 b1 a5 3f 4f a5 2e bf 71 b0 2e bf
       0.26240814 1.29448 -0.6822099 -0.6823798
000180 1d 63 b9 be 02 44 42 c0 60 fe 9a bf f1 b8 51 bf
       -0.3620843 -3.0354009 -1.2108879 -0.81922823
000190 0e 46 33 be 65 65 30 be 00 6d 8b bf ba 4d a6 bf
       -0.17507192 -0.17226179 -1.0892639 -1.299247
0001a0 c5 1f 4d 3f db 24 84 bf 97 d1 81 bf 48 99 82 bf
       0.801266 -1.0323747 -1.0142087 -1.0203028
0001b0 dc 71 0c 40 7c fd 73 3f eb b7 2d 3f f1 26 a1 bf
       2.1944494 0.9530866 0.6785876 -1.2590009
0001c0 af de 0c 40 32 6f 4c c0 20 56 d5 be 98 8c 96 3f
       2.2010915 -3.1942868 -0.4166727 1.1761656
0001d0 f3 14 ea be c4 d3 11 bd 14 61 30 bc ef 9f 63 be
       -0.45719108 -0.035602346 -0.010765333 -0.22228979
0001e0 5c c3 a9 bf 74 34 e8 3d 27 cf 95 3d cd 2c 17 bf
       -1.3262744 0.1133813 0.07314902 -0.59052736
0001f0 3a 6d 90 3d b0 31 bc bf 38 2f cc be dc ab a8 3d
       0.07052083 -1.4702663 -0.39879775 0.082359046
000200 81 60 1b c0 e7 09 5e be 59 e1 fd 3f 81 c9 e6 be
       -2.4277651 -0.21683465 1.9834396 -0.4507561
000210 af 3d dc bc 08 ad 42 bf 2c 47 f1 3f ea 42 d3 be
       -0.026884882 -0.76045275 1.8849845 -0.4126199
000220 61 c0 1c bf f0 31 27 3f 26 f4 ba bf a6 0e cb be
       -0.61231047 0.65310574 -1.4605758 -0.39659613
000230 ec 0a 13 bf bd ce a6 bf 7e 0e 0d 3e b3 f3 c4 be
       -0.5743854 -1.3031842 0.1377506 -0.38467178
000240 a5 90 f2 bf fc b6 30 40 1a 77 22 3f f0 c2 a6 3f
       -1.8950392 2.7611685 0.63462985 1.302824
000250 03 d4 ae 3f 18 dc 02 bf 70 ec cc 3e bd 7e d0 bd
       1.3658451 -0.51117086 0.40024137 -0.101804234
000260 63 49 67 c0 35 6b 83 bf a2 79 43 be aa 45 86 c0
       -3.6138542 -1.0267092 -0.19089368 -4.196004
000270 f8 55 15 bf e1 92 c8 bd 8d aa df bc 8c 6d 74 3e
       -0.583343 -0.0979364 -0.027303005 0.23869914
000280 a8 df af bd ba 1b 13 bf 99 9c 6e bf 5b d6 1f bb
       -0.08587581 -0.5746418 -0.932077 -0.002438924
000290 97 71 c0 3e 38 e5 78 3e 84 31 85 bf 1b 9a 99 bd
       0.37586662 0.2430619 -1.0405736 -0.075000964
0002a0 8a 39 ad 3f 48 cb dc bf 21 ed 6b bf 10 a7 a0 3f
       1.3533185 -1.7249537 -0.92158705 1.2550983
0002b0 bf 01 51 3f b4 d2 ae be c8 d3 3f bf 02 3c 0d 3d
       0.8164329 -0.3414513 -0.7493253 0.034481056
0002c0 7d 3d 95 bf 9f bf 8f 3f 93 14 84 bf 4c 19 65 bf
       -1.165939 1.1230353 -1.0318779 -0.89491725
0002d0 f1 9a 7b 3e 1f fd 2b c0 b1 34 e4 be 61 8e 58 be
       0.24570824 -2.6873243 -0.4457145 -0.21148063
0002e0 99 7b fe be 23 9b 78 bf ae 3c 94 3f 13 c6 8b bf
       -0.49703673 -0.9711172 1.1581018 -1.0919822
0002f0 c7 02 68 3f ca 61 27 bf 78 e6 8f bf 63 6e 90 bf
       0.9062924 -0.6538359 -1.1242208 -1.1283687
000300 b9 c4 53 3e 4a 12 6d 3f 6d 43 0a 3f ca 0a 71 bf
       0.20680512 0.9260603 0.54009134 -0.9415709
000310 e0 37 83 3f e5 bf 2a c0 6b 7c 69 bf e9 9f 62 3f
       1.0251427 -2.6679623 -0.9120547 0.88525254
000320 a0 72 45 bf a1 b3 63 be 8f 51 00 bf 14 f8 d4 3e
       -0.7712803 -0.22236492 -0.5012445 0.4159552
000330 ab 78 db be 50 0c b2 3e f2 f5 b3 be cf d3 2c bf
       -0.428655 0.3477502 -0.3514858 -0.67510694
000340 20 31 30 bf 1d 20 cf bf 7f 01 12 bf 15 d5 46 bf
       -0.6882496 -1.6181675 -0.5703353 -0.7766889
000350 77 c3 b6 bf 3d 57 05 bf 88 fb 11 40 84 e2 ed be
       -1.4278401 -0.5208624 2.2809772 -0.4646188
000360 0b 1a d2 3e 08 fd 10 bf c6 15 ab bd 5d e2 ef be
       0.41035494 -0.56636095 -0.08353762 -0.4685239
000370 f3 13 11 3e ca 88 a1 3e a5 26 4e be 0b 81 c8 be
       0.14167766 0.31549674 -0.20131929 -0.39160952
000380 63 da 88 bf 0f 81 f8 be b8 f5 9f 3e 5e f1 6e bf
       -1.0691646 -0.48535964 0.31242156 -0.9333705
000390 84 d3 f8 bf 41 30 80 3f 33 a6 a4 3d 44 ed 5d 3f
       -1.943955 1.0014726 0.080395125 0.86690164
0003a0 a8 cd 91 3f 97 37 93 bf 29 2b d2 3e b2 73 67 be
       1.1390886 -1.150134 0.41048554 -0.22602728
0003b0 ee 20 f4 bf c3 46 6c be ed 18 8a 3d ac 82 c8 bf
       -1.9072549 -0.23073868 0.067430355 -1.5664878
0003c0 de 49 96 be 8e 74 2e 3e 16 a4 b0 3d c1 fe 8f 3f
       -0.2935323 0.1703665 0.08625047 1.124962
0003d0 f7 8d 33 bf d2 72 02 bf c1 34 a4 3e 24 ad 30 3d
       -0.70138496 -0.5095645 0.32071498 0.04313387
0003e0 b6 dd 84 3e ec 6a 0f 3e 9f b5 3c bf 50 19 10 3f
       0.25950402 0.14005631 -0.7371463 0.56288624
0003f0 18 ab d9 3f 82 86 59 bf d3 14 8d bf 46 73 87 3f
       1.7005339 -0.8497087 -1.102198 1.0582054

bias f4 [24]
000000 82 3f 52 bd 54 eb 14 be ec 28 47 3c 4c a8 50 3c
       -0.051330097 -0.14542896 0.012155753 0.012735438
000010 d3 30 5a bf 09 c5 d8 3e bd 28 df bd b7 98 64 3e
       -0.8523075 0.42337826 -0.10896442 0.22323881
000020 50 51 04 3f 36 47 ee be 66 d7 8e bd 8f 0a ce 3b
       0.51686573 -0.46538705 -0.06974678 0.00628788
000030 36 3f f1 bd 2a 79 4b bf 54 14 8a 3e ac 3f 05 3f
       -0.11779635 -0.79481757 0.26968634 0.5205028
000040 11 a6 8f be ce e1 99 3e d7 c1 51 be bb 1a c7 3c
       -0.28056386 0.30055088 -0.204841 0.024304738
000050 87 dc ee 3d ec ad a5 bd eb 27 88 be 9e 66 70 3e
       0.11663156 -0.080898136 -0.26592955 0.23476645
